simple_model.pth (torch, 70144 bytes, 11 tensors)

token_embd.weight f4 [28, 32]
00000000: af73 1e3e f63b 7e3c 8194 a83d 4727 53bd
00000010: e16d 1cbd 45b2 08bd 155d 0d3e 43dc a7bd
00000020: 343b 97be 306f 8b3e b0e7 9abd ba92 9f3e
00000030: e161 90bc e95a b2bd da21 0c3e d957 c83d
00000040: e74d 753d 7c3b 8a3c cc70 93be 6be2 ae3d
00000050: 3151 453e 9091 82be 8e2e 6dbe 1878 03be
00000060: d631 9d3d 0986 8a3e cd5f 7bbd 5ca3 8ebc
00000070: ee15 53be f693 cabd 4c47 173d 82d9 45bd
00000080: fe0b 4c3d d09f 123f d31c 55be 62ec 0bbe
00000090: 240a 7b3e 549b 48be 1ed1 dc3e 3fee 14be
000000a0: a82d 21bf 1c42 a7bd 7df7 443e c2d3 82be
000000b0: 3aa3 ac3e 0761 323e 1d9a 9bbe 85ef 453e
000000c0: c305 ecbd 097e 843e 809a e03e 7b75 9bbe
000000d0: 6264 003d 76c1 3f3f 3e6b 7a3e 47dd df3c
000000e0: 9324 6bbe d797 98be fea8 11be 8500 bd3d
000000f0: 0e93 5dbe 4ffc e7be c57c b0bd 149c f23d
00000100: d5b6 22bd 6ed6 dd3e 2f24 ac3e d8f6 71bd
00000110: bec1 33be c2b7 aabe 6f8e a3be fd4f 15be
00000120: 927c ca3e e610 8cbe 2ea1 f33d c998 483e
00000130: 39cb 173e e984 b53c ac7d 22bd 1b6f ba3b
00000140: 1df3 cbbe f419 7cbc 3724 ca3d 44d1 153e
00000150: 634e a33d bc9f c4bd 04e4 98bd a39e 2dbe
00000160: 2142 193e 0cc5 9abe 9615 38be 478f 9c3c
00000170: 98cd ac3e 5f02 013e c199 17be ff20 fd3c
00000180: 43c8 643e a0f9 6ebd 48f3 833d cc4e 9c3e
00000190: 0f38 c93d a7f3 53bd 21be 35be 44c1 47be
000001a0: 2c62 3f3d 917b 3b3d d502 8d3d 6baa 65be
000001b0: 65e9 a33d f172 a13e 9db8 4b3b 6050 1ebe
000001c0: 57c6 f83d 8efa 7dbe 0d9a 1a3e 07b7 25be
000001d0: 780d 7fbe b8e4 2ebe b6e7 e63e a04a 8e3d
000001e0: eaeb 8f3e 0945 e93d d553 08bf 9c10 68be
000001f0: 719b 1c3e 886d c4bd 8b94 82be 9a3c 31bd
00000200: 780e 1c3e 5991 a6be ba18 2c3d f024 633e
00000210: 7a43 173e 33c0 4a3e de9f bebd dd93 bebc
00000220: b1f7 f23e c328 9ebd f10c 803e 1da8 3f3b
00000230: 84c4 ac3e 44ce d8bd 04f1 76be 4bf5 b6bd
00000240: 8a4b 1b3e c249 153f e79d 43bd 025d 973d
00000250: 4437 dc3c 7aac 173e bd50 d8bd 5b64 983d
00000260: 6d32 b3bd 03f1 de3c 47d7 9abe 9433 aa3e
00000270: 00f1 36bd e1d8 583e f1c0 5bbe 2516 c63d
00000280: d83c 6bbd 00e9 1bbe 1fc6 d83d f9a9 14be
00000290: fbca 243e 06ea 96bd 123e 3a3b 0f15 9fbc
000002a0: 5444 18bd 820c e23e 7a8b 2c3d 701f a8be
000002b0: 475a 0abe f103 573d de7c 2ebd 2db1 8fbd
000002c0: 2e01 873e 6d2d 2cbe bb2e f73e c647 903d
000002d0: 52d2 76be ef67 cabd 5eb4 473d b5fa 83be
000002e0: 9c64 563e cef4 0d3d e230 9cbe bacc 72bd
000002f0: 9cf2 763e a99e 0d3f 8374 ab3e 183d 1ebe
00000300: 1c3e 5e3d 5a8c 863d 48d0 db3d f786 1ebe
00000310: b706 f9bd 1bb1 cf3d 4efc 3dbe 3a04 6bbd
00000320: 9dd4 0d3e 292f b33d d050 ce3e ab19 efbd
00000330: dcf6 993e 3a0e ddbe b8d8 60bd 0492 0abf
00000340: 3dab b7be b7bd 87be a003 7c3d 06b5 4ebc
00000350: 94a9 6d3e 9aca ce3d 0861 783d b6db ecbd
00000360: ca6b da3d 6860 993e e0e9 ec3c 8522 253e
00000370: dc70 313e e06e 4a3d 519b 643e 4137 863e
00000380: aa9d a43e 2bae 1fbe a819 29be 4067 5a3e
00000390: 1d94 40be 9fde a33d 2ba8 94be 484d 1abe
000003a0: 7cae bf3e c208 a8bd fd91 863e d3ec 293d
000003b0: bf76 8c3e 9b94 013e d2b6 62be d470 0e3c
000003c0: a267 483e 9b43 0e3e c3a9 273e 0f32 4fbe
000003d0: 5821 91be 46fd a3be 6fd8 573e e998 dd3c
000003e0: 5053 f0bd 8fd6 a53d 09e7 dabe d9c0 7abe
000003f0: 0a5d 5b3d 3b8c 87bd 2d9a 38bc 8260 89be
0.15473817 0.0155172255 0.0823145 -0.05155113 -0.038190726 -0.033373136 0.13805039 -0.081963085
-0.29537356 0.27233267 -0.07563722 0.3116663 -0.017624797 -0.08708746 0.13684788 0.097823806
0.059888747 0.016874067 -0.28796995 0.085392796 0.19269253 -0.2550168 -0.2316229 -0.12838781
0.07675521 0.27055386 -0.06137066 -0.01741188 -0.20613834 -0.098915026 0.03693323 -0.048303135
0.049816124 0.57275105 -0.20811777 -0.13664392 0.24515587 -0.19590503 0.43128294 -0.14544009
-0.6296029 -0.08166906 0.19235034 -0.25552183 0.33718282 0.17419825 -0.30391017 0.1932965
-0.115245365 0.25877407 0.43867874 -0.30363068 0.031345733 0.7490457 0.24454972 0.027327193
-0.2296317 -0.29803345 -0.14224622 0.09228615 -0.21638128 -0.45309684 -0.08617548 0.11846176
-0.039725143 0.4332766 0.33621356 -0.0590733 -0.17554376 -0.3334332 -0.31944606 -0.14581294
0.39548165 -0.27356642 0.11895977 0.19589533 0.14823617 0.022158103 -0.03967063 0.0056895143
-0.39833918 -0.015387047 0.09870189 0.1463061 0.079739355 -0.096007794 -0.074653655 -0.16955046
0.14966632 -0.3022846 -0.17976984 0.019111289 0.33750606 0.12598561 -0.14804746 0.030899523
0.22342019 -0.05834353 0.064428866 0.30528867 0.098251455 -0.051746037 -0.1774831 -0.19507319
0.046724483 0.04577214 0.06885306 -0.2242829 0.08003501 0.31533006 0.003108538 -0.15460348
0.12147205 -0.2480261 0.15097828 -0.161831 -0.24907482 -0.17079437 0.45098656 0.06947827
0.28109676 0.113901205 -0.5325292 -0.22662586 0.15293671 -0.09591204 -0.25503954 -0.043270685
0.15239894 -0.32532766 0.04201577 0.2218206 0.14771834 0.1979988 -0.09307836 -0.023263866
0.474546 -0.077226184 0.25009874 0.002924449 0.3374368 -0.10586217 -0.24115378 -0.08933505
0.15165535 0.5831567 -0.04775801 0.07390787 0.026881821 0.14811888 -0.105622746 0.07441016
-0.08749852 0.027214533 -0.3024237 0.33242476 -0.04466343 0.21176483 -0.2146032 0.096721925
-0.057431072 -0.15225601 0.105846636 -0.14517964 0.16093056 -0.07368855 0.0028418344 -0.019419221
-0.037174538 0.44150168 0.042125203 -0.32836485 -0.13511 0.052493993 -0.04259955 -0.070162155
0.26368088 -0.16814204 0.4827784 0.0704494 -0.24103668 -0.09883105 0.048755996 -0.25777212
0.20936817 0.034657292 -0.30506045 -0.059277274 0.24115986 0.5532022 0.3348733 -0.15452993
0.05425845 0.06569739 0.10733086 -0.15481173 -0.12159484 0.10141202 -0.18553278 -0.057377078
0.13850637 0.087492295 0.4029603 -0.11674818 0.3007115 -0.43174917 -0.05489418 -0.5412905
-0.35872832 -0.26511928 0.061526895 -0.012616402 0.2320922 0.10097237 0.06063941 -0.11565344
0.106650904 0.29956365 0.028920114 0.1612645 0.17328209 0.049422145 0.22324874 0.2621403
0.32151538 -0.15593784 -0.16513693 0.21328449 -0.188065 0.08001446 -0.29034552 -0.15068543
0.3743781 -0.082047954 0.26283255 0.04148562 0.27434346 0.12654345 -0.22140053 0.0086938925
0.19570783 0.13892977 0.16373353 -0.2023394 -0.28345752 -0.3202917 0.21078657 0.027050452
-0.117346406 0.080975644 -0.4275439 -0.24487628 0.053555526 -0.06618544 -0.011267227 -0.26831442

pos_embd.weight f4 [29, 32]
00000000: ebdc ccbd e6dd ccbe 9b52 da3d c1e5 3bbe
00000010: 4901 42be c926 783e cd66 92be 91c2 5f3d
00000020: bef5 c83e 727f 06be 7f3a adbd 10e8 333e
00000030: 14f6 35be bfbc f2bd 9124 a03c 3473 9f3e
00000040: e2a4 a23d 58e5 03be ee97 86be 3b96 103d
00000050: 7ff3 a23d 7420 29bf e721 673d 88f5 e33c
00000060: 2cc3 aa3e eeb1 0e3f 2428 083e 4d0d 903b
00000070: a6bc ba3d 0783 cb3e 3474 a33c aaa0 383c
00000080: 007f a3bd 2131 debe 6118 d13c f84f 79bc
00000090: 4a3b 16be 089e ebbd 0318 b3be 1896 7e3d
000000a0: d304 0c3f 852d 4abe e4be a4bd 3490 903e
000000b0: d7a6 b1bd be75 9ebe 2703 823e 1e8c c43b
000000c0: dc28 813e 59a7 b3be e196 91be ceea a13c
000000d0: cc80 2cbe 5ae3 b8be 91cb 3a3e ac0a 9abe
000000e0: dcaa 5d3d 7fec b93e 427d 693e 4d4a c7bd
000000f0: 018a 58bc 0cfe da3e 972f d438 ad6c 5bbd
00000100: b572 a03d 2d02 95be cff6 4d3e 2baa 96be
00000110: b34f 353d f3b2 2b3e d57b 97be af5f 633e
00000120: 074c 4b3f e52b 043d 181f d13d 0c45 ad3e
00000130: f97f 36be cef4 3fbe abf7 233e f738 cd3b
00000140: 70fd 743e 5fbf 5ebe 3f4a 39be 8c8f 803e
00000150: 922c 73be 6762 0ebf 1ac4 5dbe d2fe 303c
00000160: 1b13 8c3e 84cc de3e 789e bb3d b70f d4bd
00000170: b6c3 623e bb01 0f3f 36e9 a4bd 48c1 76bd
00000180: 5f7d 203e b5b1 afbe a586 9b3d fce9 0cbe
00000190: 6b3b 333e 13b4 9a3c 1306 8bbe 0154 2ebd
000001a0: 3656 203f 8e0a 3c3d abcc 00be 6d3d 843e
000001b0: a116 cfbd 239d 06be 8907 f03d e9cd 5b3d
000001c0: 1069 efbd 581c 78be 2497 2fbe fd9e 39bd
000001d0: 5965 53be d97d 1abf 18b7 bcbe 2b2b e63d
000001e0: eddb b53e 7fff 003f f993 3cbd f7e2 cc3c
000001f0: 98dd 7a3e 8341 ea3e c2cf 4a3d c55a 94bd
00000200: 6237 db3d 7764 2bbe 82d9 d83d 1985 2ebe
00000210: 19b3 b73d 9bbf 083d beef 0dbe 1f78 2bbf
00000220: 32db 9b3e f845 843d 1120 523e e1e1 97bd
00000230: 087b 37be 424b 9fbd 10f1 2d3e d6ab 993e
00000240: e1f7 a03e 7b55 4cbe 673f 13bc 03fa 89be
00000250: 8767 ca3e fd18 c7be 79bb 1cbf 8664 2e3c
00000260: 56cb 3a3e 81ab 593e 76a3 df3d 9a30 e8bd
00000270: efdb 6a3e db90 b23e 3762 81bd 3ffe f53d
00000280: f5c1 81bd 8ae1 d83d b455 17be fe9f 0ebd
00000290: d5ff 36bd d22b 273e 3d85 323d 3a2a afbd
000002a0: ac5c 083e 7dfa 9a3e 83cb 22bd 2310 32bd
000002b0: aecc 343e 7d5f ec3d bbd8 5d3e 1613 5a3e
000002c0: 2e14 43be da95 e3bd d8ac 553e 6a5e 08bd
000002d0: 8648 933d 51c2 b0be 1caf b9be 65f2 e93b
000002e0: a695 f83c d280 ba3e c55f 1ebe 7481 b13e
000002f0: 9040 ee3d 02c5 033e 6a33 5fbe adcb f5bd
00000300: 3f5e 8cbe 82f7 123b 21fd 2dbe 54f5 90bd
00000310: f8c2 203b 90f0 ecbd 3b17 46be c7ef dfbd
00000320: 5cb7 5c3e cf94 d63e b758 303e 683f edbd
00000330: 0df1 a53e d414 0b3e 70bf d33d 9877 cabc
00000340: e616 13be 7652 12bc 1345 a03e 40bd c43d
00000350: c46a 0dbc 5411 4abe adb9 05be 901b 66bc
00000360: 656d bbbd 713b 0c3e 5479 97bd cf2b 223e
00000370: c70f a33d fba9 39be 72b8 6dbe 01c2 4dbe
00000380: 08c2 3ebe 7d60 083e 9024 86bc 2193 c53c
00000390: 7e80 84bd 844f 00be f1bc adbe e98f 3fbe
000003a0: dfca 523e aa1b a03e 82d7 bd3d 93b4 86bd
000003b0: 38a2 8c3d 9ab4 d3bb 9ba8 72bd 335a 39bb
000003c0: cc1d e83d 58a1 fe3d cd9f de3d 9290 b8be
000003d0: bdd0 603c 0eaf b43e 3dca 643e b1e2 c0bd
000003e0: 47a1 a4bd 44bf b2bd 80de 3dbd 94e9 c53a
000003f0: 2870 163d 7fa7 533c 4713 82bd b180 95bd
-0.10003074 -0.40013045 0.10660287 -0.18349363 -0.18945803 0.24233545 -0.28594056 0.054628912
0.39249986 -0.13134554 -0.08458423 0.17568994 -0.17769653 -0.11852407 0.019548686 0.3114258
0.07941605 -0.12880456 -0.26287788 0.03529952 0.079565994 -0.66065145 0.056428816 0.02782704
0.3335203 0.5574025 0.13296562 0.004396117 0.09118013 0.39748403 0.01995287 0.011268774
-0.07983208 -0.43396857 0.02552432 -0.01521682 -0.14671054 -0.115047514 -0.34979257 0.06215486
0.5469486 -0.19743927 -0.08044222 0.28235018 -0.086744 -0.30949205 0.2539303 0.0059981486
0.25226486 -0.35088614 -0.28435424 0.019765284 -0.16846007 -0.36110955 0.18241717 -0.30086267
0.054118022 0.36313245 0.22801688 -0.097309686 -0.013216496 0.42771947 0.00010117812 -0.05357044
0.07834379 -0.29103222 0.20113681 -0.29426703 0.04426546 0.16767482 -0.29586664 0.22204469
0.79412884 0.032268424 0.10211009 0.3384174 -0.17822255 -0.1874573 0.16012447 0.0062628943
0.23924804 -0.2175269 -0.18094729 0.25109518 -0.23747471 -0.556189 -0.21656838 0.010802941
0.27358326 0.43515408 0.09161085 -0.1035456 0.2214497 0.55862015 -0.08052294 -0.06024292
0.15672825 -0.34315267 0.07594041 -0.13761133 0.17503135 0.018884694 -0.27153072 -0.04256058
0.6263155 0.045908503 -0.12578075 0.25828114 -0.10111738 -0.1314588 0.11720187 0.053663168
-0.11689961 -0.24229562 -0.171475 -0.04531764 -0.2064413 -0.6034828 -0.3685844 0.112387024
0.35519353 0.50389856 -0.046039555 0.025010569 0.24498594 0.45753106 0.04951454 -0.072438754
0.10703923 -0.16737543 0.10588361 -0.1704296 0.08969707 0.033385854 -0.13860986 -0.66980165
0.3044067 0.06458658 0.20520045 -0.0741613 -0.17918026 -0.07778026 0.1698649 0.30013913
0.31439117 -0.19954483 -0.008987284 -0.26948556 0.3953211 -0.38886252 -0.6122356 0.010644084
0.18241629 0.2125683 0.109198496 -0.11337395 0.2293546 0.3487614 -0.06317561 0.12011384
-0.063358225 0.10589893 -0.14778787 -0.03482055 -0.044677574 0.1632531 0.043584097 -0.08552976
0.13316602 0.30269232 -0.039744865 -0.04347242 0.17656204 0.115416504 0.21664707 0.21296343
-0.19050667 -0.11112566 0.20866716 -0.033293165 0.07191567 -0.34523252 -0.3626641 0.0071394914
0.030344795 0.36426407 -0.1546622 0.34669077 0.11633408 0.12868121 -0.21796957 -0.12001739
-0.27415654 0.0022425358 -0.16991092 -0.070780426 0.0024530273 -0.11569321 -0.19344799 -0.10934406
0.21554321 0.41910407 0.17221342 -0.115843594 0.3241047 0.13582164 0.10339248 -0.02471523
-0.14364204 -0.008930793 0.313027 0.09606409 -0.008631412 -0.19733173 -0.13059111 -0.014044657
-0.09151725 0.1369455 -0.073961884 0.15837024 0.07961994 -0.18131249 -0.23214892 -0.20093538
-0.18628705 0.13318057 -0.016374856 0.024118008 -0.064698204 -0.12530333 -0.33933213 -0.18707241
0.20585202 0.31271106 0.092696205 -0.065774105 0.06866878 -0.0064607384 -0.059242826 -0.0028282523
0.11333808 0.12433118 0.10870323 -0.36047798 0.013721642 0.35289806 0.22342773 -0.09418238
-0.08038574 -0.08727887 -0.04635477 0.0015099519 0.036728054 0.012918352 -0.06351333 -0.072999366

block.sa.key.weight f4 [16, 32]
00000000: 9e30 b7be 13c0 12be 43bb 5fbe 073a d5be
00000010: 32f3 eebd bb9b b7bc 2d24 01be fa29 3ebd
00000020: 212c 433e 5692 09bf 2ee9 ae3d ede9 2abd
00000030: 432b 1fbd 252e 78be 5b8e 88be d314 923e
00000040: 8c3f e33d 4a54 b33d 5f63 633e 70e5 97be
00000050: aa2d c5be de10 713d e47d 623d fc04 34be
00000060: 3b37 853d d838 a43e a135 883e d596 983e
00000070: 8a53 783e be16 113f c5e4 cd3e 3ce8 8d3e
00000080: 2b35 6d3c 06e2 2dbe aa3c e63d f977 163f
00000090: 9997 c1be 2951 2a3e 72e3 ab3e 98ce 973e
000000a0: a27f a4be 3cd8 d63c 3bd4 48bf de68 e9bd
000000b0: 06c0 80bc ea06 413e 7b46 51be 5e0b 9fbe
000000c0: 3642 5f3c 7199 e63e 76b6 06bf 506a be3e
000000d0: 4923 833d 4407 3cbe ed93 d63c face 933e
000000e0: e740 5a3d 50cb 603e 7d1c c13d cd81 8dbc
000000f0: e023 40be d7ef 75be 72af 823e 1ede 0cbd
00000100: 849f 72bd 6cd0 2abd b49a df3a fc6f e83d
00000110: b21e ec3c 4aa6 3e3e 986a c63d 21c5 94be
00000120: 682d 2a3e 71cf 773d 7666 ae3e 28f8 18bf
00000130: 44c8 cf3d c97c 0e3d a78b d1bd e112 29bf
00000140: c36a a0bd 3477 aa3d d0eb 553f 973a dd3e
00000150: 2c95 2dbe d32d cb3e c718 11bf dc41 c13d
00000160: 968b d5be 1f8a e1be 732c 77be c88e 413e
00000170: 812e 203e 9305 15be 0b5b c13e 57d4 d13c
00000180: 7a55 093c 8ac2 ba3d bc95 e23e 2693 2abf
00000190: f7e1 02bd 93ca f1bd 66d6 663e b825 303c
000001a0: 37a1 74bd f7db 22bd bef5 b3bd 0e66 c9be
000001b0: 1654 f6bd db16 d2bd 0163 3fbe aec3 353e
000001c0: 2f03 dd3d 5ebf d1be 95cd 643e bcd3 bb3e
000001d0: 94fe b6be 08be 18bd 2d5f 793e e9fc a8be
000001e0: ec8c f83e 7337 643e c38e 7f3f 662f 1abe
000001f0: d755 2bbe 7848 59bd 40a7 2fbe 1fbb 90be
00000200: add9 d8be 1cf1 02bd 3ada 4f3c bd8a b93d
00000210: 25f6 f4be b869 8d3e 2b34 1cbe aa0c e13e
00000220: 2d5c 25bd 7d1c 0c3d 276d b1bd 920c 1cbe
00000230: 4e67 2b3d 311f e23e ef99 cf3e e39a 983e
00000240: 9b91 8abe ef17 873c fc5b 9ebe 42be 683e
00000250: f1b1 203f 4a6c 90be 19aa 263f 9714 edbe
00000260: b8d8 a5be 20eb 043e 1258 843d 2f57 403e
00000270: 7563 1dbe ed76 bcbe b863 0e3e bfd1 033d
00000280: 128b d13d 6791 c0bd bbf2 413e 16aa 8b3e
00000290: f34b b93d f0e8 9dbd 70c9 c53d 45b7 e63d
000002a0: 96a4 62be 695a 3c3f dae8 10bf 6ade a13d
000002b0: 2847 e6be 3bdb 2e3d d29a 743e fe2a 95be
000002c0: a80a 1c3e 2bed ef3d 0070 22bf 754d 733e
000002d0: 5cf0 be3d 8142 d33d 6ba2 77be dd50 abbe
000002e0: d4c0 83bc 1ba0 e9bd 5522 a93e 322f 853e
000002f0: ebaf 813d 9a9b 2cbe fcd5 3f3f dd19 debe
00000300: 164e 443e a269 29be 960e c03e e127 0c3f
00000310: 3f67 4dbe e810 7fbe 00a5 52be a8f1 ae3e
00000320: 7a96 91be 538d 74be b9ba 89be 6f1b 793d
00000330: 4217 0c3d ec4d f0bd e315 2b3e 4d9a c0be
00000340: aecc 84bd d860 5a3c af13 c93e f5eb ff3d
00000350: 5d2c 43bd ad5a 3c3f 2983 5f3f c982 55be
00000360: 2a99 74be d54d d9be 7824 11bb 1250 5fbe
00000370: a8f3 82be 3b65 2bbe 5f4e 9f3e 8d61 d1bd
00000380: a227 72be e853 4bbe 321e a2be dc78 953d
00000390: 17d9 b33e 155f 50be 1c0c c8be e6d2 7bbe
000003a0: d483 5a3f 0436 e73e d375 003d b0e6 063e
000003b0: d2c1 123e e383 1b3e ff52 87bd 7aa8 c93d
000003c0: 5394 e33d 5543 1ebd 1f6d e53e b90c 40bc
000003d0: e8f2 bcbe cb4c 8cbe b56a bdbe 1717 edbe
000003e0: 9283 e7bd 8fba b73e 94c5 a8be 38c3 473d
000003f0: 2702 143e f225 fe3e c174 27be 6648 7abe
-0.3577928 -0.14331083 -0.21848778 -0.41645834 -0.116674796 -0.022413125 -0.12611456 -0.04642675
0.19059803 -0.53738916 0.08540569 -0.041726995 -0.038859617 -0.24236353 -0.2667111 0.28531513
0.11096105 0.08756311 0.22205876 -0.29667234 -0.385114 0.058853976 0.05529584 -0.17580026
0.06504675 0.32074618 0.26603416 0.29802576 0.24250618 0.56675327 0.402136 0.27716243
0.014478008 -0.16980752 0.112420395 0.58776814 -0.37810972 0.16632523 0.33571965 0.29649806
-0.32128626 0.026226155 -0.7844884 -0.11396955 -0.015716564 0.18850294 -0.20437042 -0.3106336
0.013626626 0.45038942 -0.52622163 0.37190485 0.064032145 -0.18362147 0.026193583 0.28868848
0.053284552 0.21952558 0.09429262 -0.017273808 -0.18763685 -0.24017273 0.2552448 -0.034391515
-0.059234157 -0.041702673 0.0017059655 0.11349484 0.02882323 0.18618122 0.096883 -0.29056647
0.16618884 0.060500566 0.34062546 -0.59753656 0.101456195 0.034786973 -0.10231715 -0.6604443
-0.07832863 0.083235174 0.83562946 0.43208763 -0.16951436 0.396834 -0.5667843 0.0943639
-0.41708058 -0.4405069 -0.2413805 0.18902123 0.1564274 -0.14552908 0.37764773 0.025613947
0.008382196 0.09119137 0.44254863 -0.6663078 -0.031953778 -0.11806216 0.22542724 0.01075118
-0.05972406 -0.039760556 -0.08787106 -0.39335674 -0.12027757 -0.102582656 -0.1869011 0.17750427
0.10791623 -0.40966314 0.22344048 0.36684978 -0.35741103 -0.037290603 0.24352713 -0.33005455
0.48545015 0.22286777 0.9982721 -0.15057144 -0.16731964 -0.053047627 -0.17153645 -0.28267762
-0.42353573 -0.03196822 0.012686307 0.09059665 -0.47844043 0.2761972 -0.15254276 0.43954974
-0.04037111 0.034206856 -0.08663397 -0.1523917 0.041846566 0.44164422 0.4054713 0.2980567
-0.27064213 0.016490905 -0.30929554 0.22728828 0.6277152 -0.28207618 0.651033 -0.4630477
-0.32391906 0.12980318 0.064621106 0.18783258 -0.15369971 -0.36809483 0.13905227 0.03218245
0.10231604 -0.09402733 0.1894025 0.27278203 0.09047689 -0.07710445 0.09657562 0.11265425
-0.22133097 0.73575455 -0.56605303 0.0790375 -0.44976163 0.042689543 0.23887184 -0.29134363
0.1523844 0.11715158 -0.6345215 0.23760016 0.09323189 0.10315419 -0.24183051 -0.3346013
-0.016083159 -0.11407491 0.33034006 0.2601257 0.06332382 -0.16856232 0.7493589 -0.43379107
0.19170412 -0.16544202 0.37511128 0.5474835 -0.20058917 -0.24908793 -0.20570755 0.34168744
-0.28435117 -0.23882036 -0.2690027 0.06081718 0.034201868 -0.117336124 0.16707568 -0.37617722
-0.06484352 0.013328753 0.3927283 0.12496177 -0.04764973 0.7357586 0.8730951 -0.20850672
-0.23886552 -0.42442194 -0.0022146981 -0.21807888 -0.2557652 -0.16737835 0.3111448 -0.102236845
-0.23647931 -0.19856226 -0.31663662 0.07298443 0.35126564 -0.20348771 -0.3907174 -0.2459217
0.85357404 0.45158398 0.031362366 0.13173938 0.14331749 0.1518703 -0.06607627 0.098465875
0.11112275 -0.03863843 0.44809815 -0.011721783 -0.36904073 -0.27402338 -0.36995474 -0.4630668
-0.11304392 0.3588452 -0.3296324 0.04877016 0.14453946 0.49638325 -0.16353132 -0.2444168

block.sa.query.weight f4 [16, 32]
00000000: b47b 1b3f f0bf 813e a550 08be 8b1f edbd
00000010: ec7d 2a3e c561 babe 9e6b e23e caec c63d
00000020: 403e dbbe 310a 403d 4800 95bd a60e 8f3e
00000030: 0d64 fb3d 4376 e33c fdec 93bd fd14 2c3e
00000040: 38c0 283e cd8b 773d a868 eabe af49 c0be
00000050: 7ba9 b73e 35c8 c03d c7ff 9bbc c2d3 0abf
00000060: d5c9 2f3d 1c0f 2c3f 3d08 ee3d 7d6d 63be
00000070: 3069 b2be 6d75 4dbe 1eef f4bc a50a 213d
00000080: d9de c1be 16dc b8bd 76d8 e8be cd58 dd3d
00000090: 7c2c 2cbd ed67 a3be fe09 b43d c56f 373f
000000a0: 9e04 593d eba6 dbbe 859d 8e3e 34ac 56be
000000b0: 5e8c 843e 85b8 2f3e 30f5 1cbd 38eb cfbe
000000c0: c303 6f3e f57e 173e f001 883e 8daf 223e
000000d0: f84e dcbd 32e3 6d3e fc83 2a3f f0b5 d9be
000000e0: 8e67 f7be 6001 22bf a7ff b63e dd15 ddba
000000f0: 7ef2 343e fe59 87be 6512 9d3e d2ef d0bd
00000100: 5bb4 133e 7313 50be 3d7a 7cbe b918 6cbd
00000110: 75c1 753d a84d 0c3e 269f e3bd f7ae 30be
00000120: 9a5c 5f3e 067a a1bd 11e0 9bbe 1ef8 29be
00000130: 76ed 8dbe 3412 283f b582 cd3e 2fae f7be
00000140: 4e31 d8be da3d 5c3f ecdd cc3e 865c c13d
00000150: 59df 0abd 71e6 88bf add9 0ebf 09e3 b43d
00000160: c7cc ce3e 23ab dc3d 1823 4a3d 63b0 71be
00000170: 46ba f43e 966b 95bd 3b57 5d3e 70da 05be
00000180: d577 2c3f 4ab4 1cbe aab3 cd3d 2fe1 86be
00000190: d5c4 5c3d c327 2b3f 04ac ee3e 2564 5d3e
000001a0: 8a28 60be 58d6 f1be 6f15 a4be 9634 463e
000001b0: 34ce 83be ba8f acbe 8171 08be 424b 01be
000001c0: ee22 c23d 63d8 08bf 5042 67be d9f1 f1be
000001d0: bc7e 063e c476 683e e6a1 0fbe ca42 f0be
000001e0: 23e9 cf3d 90aa a9be 970a e7bd 0b9d 9a3d
000001f0: 4208 0f3f 86ea 0a3f d713 a1be ba87 2d3e
00000200: 101f c9bd edcd f8be eaa8 c13e 3f37 783d
00000210: 2a81 81be 0367 89be 2378 49be 326e d13e
00000220: f29a e9bd 2b5e d6be 1b2b 8e3e ecf5 2a3f
00000230: dd4a 2cbe f2ed 40be 5978 00be 036e c4be
00000240: 6759 033f fa84 53be e6f2 7ebe 1475 273f
00000250: 24df b6bd 47c7 453e 8393 063f ae46 6fbe
00000260: fc76 4e3e 95a6 b13e da4f ea3e 78a8 2cbf
00000270: 40d5 b6be acdc c33e ea79 94bd cb57 28bd
00000280: ef1c 99be 143f 8f3c 274d 9dbe d4e2 25be
00000290: 9ebc 59bd d468 55bd 8c67 b2bd 0a0f 763e
000002a0: e6aa d93e 2504 053e aedc 5fbe f588 44be
000002b0: 9948 0e3f 2c16 253f 36c2 a5be 9e32 f2be
000002c0: 440f a4be 9da2 903e 9a56 ebbe 8329 9dbe
000002d0: 5f2c a9be 0d96 f03e b621 bb3e 9812 a5bc
000002e0: c71e d93d 6fad 0abf 342b 953e cfca 1fbf
000002f0: 8c28 153f eeab f8bd a981 8fbe b0b2 cf3d
00000300: a7f6 11bd d207 89be 55f5 c13c a4ec b9be
00000310: 4d3f a53d d118 f13e dc91 5cbe d824 673f
00000320: 0b00 783c 92d5 293d 80aa 97bd 51a2 803e
00000330: 9229 fb3e c003 273e 9a71 49bd 6155 7ebe
00000340: 9138 dbbe 7d00 80bd 6e28 ab3e 6f68 773f
00000350: 3f40 14bf b64d 9fbd 4281 d83d bf19 4cbd
00000360: e56a 083e 99c0 be3d 766b f3bd 80c1 80bc
00000370: 294c ff3c 4304 9dbe 6fae 16bf f911 61be
00000380: 30c5 2e3e 9663 433e f7e4 aa3e c39e a3be
00000390: 7e55 933e 7f9d 0cbe 7899 5ebe 31e3 53bf
000003a0: 8300 03be 87ac 0ebe 2128 67bc 3a0f 78be
000003b0: 3a48 ba3e 2c2d af3d e68d 82bc 458a 953e
000003c0: 6a11 4b3f 8d3a 973d 494f 58bc 1b7e b8be
000003d0: 2cd2 d93e d850 3bbe 513e b8be 8eb6 41bd
000003e0: b5b3 d63d c059 9c3e c087 be3e 4dc3 05bf
000003f0: 5a48 1fbb 9c77 88be 77c9 1ebe e70a 133f
0.6073563 0.2534175 -0.13312013 -0.11578282 0.16649598 -0.36402717 0.4422273 0.09713133
-0.4282093 0.04688472 -0.07275444 0.27940863 0.122749425 0.027766353 -0.07222936 0.16804881
0.16479576 0.06043606 -0.4578297 -0.37556216 0.3587149 0.094131865 -0.019042863 -0.54229367
0.04291709 0.67210555 0.11622665 -0.22209735 -0.34845877 -0.20064326 -0.029899176 0.039316792
-0.37865332 -0.09026353 -0.45477647 0.10807953 -0.04203461 -0.31915227 0.08790968 0.7165492
0.05298292 -0.42900786 0.27854553 -0.20964128 0.25888342 0.17160232 -0.038319767 -0.40609145
0.23341279 0.14794524 0.26563978 0.1588728 -0.107572496 0.232312 0.6660764 -0.4252162
-0.48321193 -0.6328335 0.35741922 -0.0016867478 0.17670628 -0.26435846 0.30678096 -0.10201992
0.14424269 -0.2031992 -0.24656005 -0.057640765 0.059998948 0.13701499 -0.111143395 -0.17254244
0.21812668 -0.07884602 -0.30444387 -0.16598555 -0.2772023 0.65652776 0.40138784 -0.4837508
-0.42225116 0.8603188 0.40013063 0.094414756 -0.033904407 -1.0695325 -0.55800897 0.08832366
0.40390608 0.10774829 0.049349874 -0.23602442 0.47798365 -0.07295911 0.21615307 -0.13071609
0.6737035 -0.1530315 0.10044034 -0.26343676 0.05389865 0.66857547 0.46615613 0.21620233
-0.21890464 -0.47233844 -0.32047603 0.19355997 -0.25743258 -0.33703405 -0.13324548 -0.12626365
0.094793186 -0.5345518 -0.2258389 -0.47254828 0.13134283 0.22701555 -0.14026603 -0.46925956
0.10151889 -0.3313794 -0.11281317 0.07549485 0.55871975 0.54264104 -0.3146045 0.16946307
-0.09820378 -0.4859461 0.37824184 0.06059956 -0.25293857 -0.26836404 -0.19674735 0.40904385
-0.114065066 -0.4186872 0.27767262 0.66781497 -0.16825433 -0.18840769 -0.12545909 -0.38365182
0.5130829 -0.20656195 -0.24897346 0.6541302 -0.089292794 0.193143 0.52568835 -0.23366806
0.20162576 0.34697405 0.45764047 -0.6744456 -0.35709572 0.38254297 -0.07249816 -0.04109935
-0.29904887 0.017486133 -0.30722925 -0.1619981 -0.053158395 -0.052101925 -0.08711156 0.24029174
0.42513198 0.12989862 -0.21861526 -0.1919287 0.55579525 0.64486957 -0.32374734 -0.47304243
-0.32042897 0.28249064 -0.4596451 -0.30695733 -0.33041665 0.4698948 0.36549157 -0.020150468
0.106015734 -0.5417089 0.29134524 -0.62418836 0.58264995 -0.12142168 -0.2802861 0.10141504
-0.035635617 -0.2676378 0.023676554 -0.36313355 0.08068714 0.47089246 -0.21540016 0.90290594
0.015136729 0.041463442 -0.07405567 0.25123838 0.49055153 0.16310024 -0.049180605 -0.24837257
-0.42816594 -0.06250093 0.33429283 0.9664373 -0.5791053 -0.07778494 0.10571529 -0.04982924
0.13322027 0.09314079 -0.11885731 -0.015717268 0.031164246 -0.30667314 -0.58859915 -0.21979512
0.17067409 0.19080958 0.3337781 -0.31957063 0.28776163 -0.13731955 -0.21738231 -0.8276854
-0.12793164 -0.13933001 -0.014108689 -0.24224558 0.3638323 0.08553538 -0.015936803 0.29207054
0.79323447 0.073842146 -0.013202497 -0.3603371 0.4254316 -0.18292558 -0.35985044 -0.04729324
0.10483495 0.30537224 0.37212944 -0.5225113 -0.00243046 -0.26653755 -0.1550654 0.5743851

block.sa.value.weight f4 [16, 32]
00000000: 3bd2 13bf 533f 17bf c3db 06be c805 453f
00000010: 201a e2be 30f2 5d3e 02ca 65be 2187 d6be
00000020: 198b 8c3d 3b7c 1e3f a1dd 5abc ea00 4c3e
00000030: e29e 8ebc e603 e5be 1be6 c73e e398 9dbe
00000040: a160 e1bd 4c48 e8be 85bf 8f3d 480d 7a3e
00000050: 12a9 113e 0d75 e8bd 95a5 4f3e c5ad a73e
00000060: 034c e4bd 9188 963d 2a61 0fbe 5417 99be
00000070: a0ae 393e 95e8 683e 68fd 4f3e 2c1d cc3e
00000080: c425 2dbe 20d9 8bbc 9dda 2e3e 5577 16bd
00000090: bb9b 0a3e 9353 e33e 7bb1 cc3c c222 fcbd
000000a0: d0d2 2dbd d755 18be 65a9 823e 7c27 afbe
000000b0: 1b3f 18bc 4132 39be a7e1 783d 9fdb 72be
000000c0: 51c5 64be e8be 673e 4b8c 3fbe 0e4b cc3c
000000d0: 01a3 253e 2fe1 223e 64a7 033d 61a8 dfbd
000000e0: 56c6 3c3e cfde 253e 229a b3bd 0355 643d
000000f0: 6cf6 91bd db9a cc3c f03b 593b 2ead 2fbe
00000100: ed74 d13d 1449 1ebd 48ff 2c3e 22d2 83be
00000110: d59b 18be 76b4 47bd 82b9 c63d 38dc 6c3e
00000120: f78c 30be a323 963d 69d3 783d 674f 433d
00000130: a171 88be f70b 8abd 351c 803c 614d 9b3c
00000140: 4daa 0dbe 136f 61be e27a 193d dc17 8a3d
00000150: 082b ca3d 8d1a cd3d 64b7 5abd 29cc 293e
00000160: dfb5 04be cfad abbd 9e78 3cbe b8e6 95bd
00000170: 06cf 4e3e 078c b5bc 36fe 403e 870e 6f3e
00000180: a9b9 06be c6fe c4be 2db1 653d 1dde 873d
00000190: 7e20 533d 9a83 5c3e 6875 293e 63a9 1f3e
000001a0: 2e1b 69be 14d6 2f3e 6473 aa3d 22b5 8dbe
000001b0: 11c5 92bd c2f9 6c3e 8f25 8b3d aaf7 f0bd
000001c0: 0e73 033f 4869 cebd b428 673e 0d55 aebe
000001d0: 5206 80be 4008 2dbe 61cd 2b3e 5241 bb3c
000001e0: 2a37 a33e 4960 973c cd8d 01be 7d63 163e
000001f0: 099a 80be 6200 193e c039 d73c 7b98 95bc
00000200: 14b0 e7bd 2b47 c03e 4891 5d3d 235a 0b3d
00000210: 0893 5b3e 6042 e2bc 6111 fbbc 28a2 65bd
00000220: 3d54 08be 565d 273e c5f5 823d 5caf 163d
00000230: 03ce 9ebc a2a3 96bd 0d50 50bc 1d2d ca3d
00000240: 3ec3 62be 85a0 24be 90a6 f23d 5551 c83d
00000250: 437a 02be a96d 04be f358 0abd 918f 9ebe
00000260: f261 433e 129b 17be 2264 773e ee4e 83be
00000270: b795 7c3d 3de3 883e 7bb8 28bd a092 29bd
00000280: d6a6 793e 02f0 a73d e894 debe 1001 1b3e
00000290: c6b0 27be 0609 5c3e 1039 adbe 7543 87bd
000002a0: d3ee febd 57c6 22bd f634 293e de9e 6bbe
000002b0: b89a cfbc c68b a53d 1de1 083e fb89 413e
000002c0: f541 123c 4832 69bc d795 12be 5371 813d
000002d0: 1f00 11be 98e0 5c3c a9eb 553e f94b 883e
000002e0: b48c c1bc d353 f03d 4aa5 0f3e 61aa 81be
000002f0: 6789 833e 8a90 3abe 393c 9c3d 8a3c 17be
00000300: 6382 c53d e4e6 213e 9d8c ef3d 9b0f c1bd
00000310: da5c 8fbd 8856 0bbd b102 19be 91f8 33be
00000320: cb5a 023e bf93 71be ec37 f2bd 4cf2 3d3d
00000330: b105 253d 5ee1 6d3c 7f59 d3be 2979 183d
00000340: 04e9 c63d 8dd1 383d 5ffc cb3d 67cc 3a3e
00000350: e16e 9e3d 87f4 6fbe 5deb a93e 8e53 adbe
00000360: 7bfa ce3d 6485 bebc a036 debe bbce ea3d
00000370: 857d e73d cb2b 563d 9882 f53d f2e5 333e
00000380: d4e0 45bd 1b6e a93d d734 c03d 9730 3f3d
00000390: 214a a8bd c1ed d43b 4a1f 56be 341d 0a3e
000003a0: 6242 213e 1dc3 12be 5667 1f3e 2c82 003e
000003b0: 32fe 2e3e 7a3a c53e 44a8 723e c9e6 c1bc
000003c0: 6446 0ebe 9899 84be 452a b4bc 179b 65be
000003d0: b569 e43c 9e2d ca3d 5690 6cbe 565e dcbd
000003e0: 87bf e8bc 7d5e babd 0f57 c13c 0860 423b
000003f0: a243 2fbe 740a 8bbe a563 763e 45de 363e
-0.5774266 -0.59081 -0.1316977 0.76961946 -0.44160557 0.21674418 -0.22440341 -0.4189997
0.06862468 0.6190831 -0.0133585045 0.19922224 -0.017409746 -0.44729537 0.39042744 -0.30780706
-0.110047586 -0.45367658 0.07018951 0.24419129 0.14224651 -0.11350451 0.20278008 0.32749763
-0.111473106 0.07350267 -0.14001909 -0.2990061 0.1813302 0.22744973 0.2031151 0.39866006
-0.16908938 -0.017071307 0.17075582 -0.036734898 0.13535969 0.443997 0.024986973 -0.12311317
-0.042437375 -0.14876495 0.25519863 -0.34209812 -0.009292389 -0.18085577 0.060762074 -0.23716591
-0.22340895 0.22631419 -0.18705861 0.024938133 0.16175462 0.15906213 0.032142058 -0.109207876
0.18435034 0.16198276 -0.08769633 0.055745136 -0.07127079 0.024976185 0.0033147298 -0.17155907
0.1022738 -0.03864391 0.16894257 -0.25746256 -0.14903195 -0.048756085 0.097033516 0.23130882
-0.17241274 0.07331016 0.06074849 0.047683146 -0.26649192 -0.06740563 0.01563845 0.018957796
-0.13834496 -0.22015028 0.037470706 0.06742832 0.09871489 0.1001483 -0.05339755 0.16581787
-0.12960003 -0.08382761 -0.18405387 -0.07319397 0.2019616 -0.022161497 0.18846974 0.23345385
-0.13156761 -0.38475627 0.05607717 0.066341616 0.05154466 0.21534577 0.16548693 0.1559196
-0.22764274 0.17171508 0.0832279 -0.27677256 -0.07166494 0.2314215 0.06794273 -0.11765988
0.51347435 -0.100786746 0.22574121 -0.34049264 -0.25004822 -0.16897678 0.16777565 0.022858296
0.31878024 0.01847853 -0.12651749 0.1468639 -0.2511752 0.14941552 0.026272655 -0.018261185
-0.11312881 0.37554297 0.05409363 0.034021508 0.21442807 -0.02761954 -0.030647935 -0.056062847
-0.13313384 0.16344199 0.06394533 0.03678833 -0.019385343 -0.07355429 -0.012714398 0.09871886
-0.22144791 -0.16076858 0.118481755 0.09781138 -0.12741952 -0.12932457 -0.033776235 -0.30968907
0.19080332 -0.14805248 0.24159291 -0.25646156 0.061666217 0.2673587 -0.04119156 -0.041399598
0.24380049 0.08200075 -0.4347298 0.15137124 -0.16376027 0.21487817 -0.33832598 -0.06604663
-0.12447896 -0.039739933 0.16524109 -0.23009822 -0.02534233 0.080833 0.13367124 0.18900292
0.008926858 -0.014233179 -0.14314972 0.06320443 -0.14160202 0.013481282 0.20890678 0.26620463
-0.023626663 0.11734738 0.14027897 -0.253253 0.25690767 -0.182192 0.07628674 -0.14769188
0.0964401 0.15810734 0.11696742 -0.09426805 -0.07000132 -0.03401807 -0.14942433 -0.1757529
0.12729947 -0.23591517 -0.118270725 0.04637365 0.04028863 0.014519064 -0.41279218 0.037224922
0.09712413 0.04512172 0.09960245 0.18242036 0.07735992 -0.23433124 0.3318738 -0.3385281
0.10106369 -0.023256965 -0.4340105 0.11465212 0.11303238 0.052287858 0.119877994 0.17568186
-0.048310116 0.08272954 0.093850784 0.0466772 -0.08217264 0.006498069 -0.20910373 0.13487703
0.1574798 -0.14332242 0.15566763 0.12549657 0.17089155 0.38521177 0.23697 -0.023669617
-0.1389404 -0.25898433 -0.021992812 -0.22422443 0.027882436 0.09871982 -0.23101935 -0.10760181
-0.02841164 -0.091000535 0.023601083 0.002965929 -0.17115644 -0.27156413 0.24061449 0.17858227

block.ln.weight f4 [16]
00000000: b557 a93e ae28 5b3f bf4e 833f b0db 413f
00000010: eb40 5e3f da8d 423f d022 373f 25ac 5c3f
00000020: c937 843f cf4a 3f3f 7b6c 4d3f 0a7b 1a3f
00000030: 6833 6b3f 69ab 193d 341a 753f 8a40 403f
0.33074728 0.8560895 1.0258406 0.7572584 0.86817807 0.759977 0.71537495 0.8620017
1.0329524 0.74723524 0.80243653 0.6034399 0.91875315 0.037516985 0.9574311 0.7509848

block.ln.bias f4 [16]
00000000: 1713 863e 009d 893d 71fd 3a3e 16b1 2a3e
00000010: 6616 38bd 61e6 323e ab45 d9bc 825c bc3c
00000020: eb00 0b3e f6ec 173e c6d8 35bd b004 0e3e
00000030: cbe8 d33d 61c6 98bd c326 ac3c dc0e 863d
0.2618644 0.067193985 0.18260743 0.16669115 -0.044943236 0.17470695 -0.026522478 0.02299333
0.13574569 0.14836487 -0.044396184 0.13868976 0.10347136 -0.07459713 0.021014577 0.06545803

ln.weight f4 [32]
00000000: f0c3 253f 937d 253f 2725 183f 711b 713f
00000010: 00e8 593f d2e6 2e3f cb77 0c3f 0d30 4d3f
00000020: 98eb f73e ebf1 413f cba7 303f 4b47 143f
00000030: 9572 2b3f dbef 323f 8191 1d3f 95f7 573f
00000040: fcda 423f 7938 0d3f 8477 3d3f ac44 2a3f
00000050: 35cc 563f 34fb 143f 1138 573f 426a 203f
00000060: 3cf7 193f 820a 3a3f 3dcf 2d3f 153b 2d3f
00000070: 8182 1c3f 8505 d83e 8199 343f 4582 223f
0.647521 0.64644736 0.5943169 0.941825 0.8511963 0.68320954 0.5487029 0.80151445
0.4842193 0.7575976 0.6900603 0.57921284 0.66971713 0.6989724 0.61550146 0.84362155
0.76115394 0.55164295 0.7401049 0.66511035 0.83905345 0.58195806 0.84069926 0.62662137
0.60142875 0.72672284 0.67894346 0.6766828 0.61136633 0.4219171 0.7054673 0.63480026

ln.bias f4 [32]
00000000: b5a5 8c3d 1ec5 053e 9363 033d bfb9 9c3d
00000010: 4223 15bd b27c 803d a134 cb3d 57ed 793e
00000020: f1ad 0dbe f36c 2bbe 1f2a 52be 7392 163d
00000030: 2bab 1dbe e9b1 a13d 9a1f 003e f287 30bc
00000040: a286 b13d 9f2d d23c 5239 8fbe fabd 2a3e
00000050: 5180 6d3d 0f93 62bc f8a1 3f3d dec7 eebd
00000060: 810c 2dbd f553 fd3c 1fb3 fa3d 1f69 b2bc
00000070: bab7 27be f1be d3bd 81aa 2d3e f3dd c8bb
0.068675436 0.13063475 0.032077383 0.07652616 -0.036410578 0.06273784 0.099221475 0.24406944
-0.13835885 -0.1674078 -0.2052388 0.03676076 -0.15397327 0.07895262 0.12512055 -0.010774599
0.08668257 0.02565652 -0.2797342 0.16674033 0.0579837 -0.013829007 0.046785325 -0.116592154
-0.042248253 0.030923823 0.12241196 -0.021778641 -0.1637868 -0.103391536 0.16959573 -0.006129974

output.weight f4 [28, 464]
00000000: 550c d53e e0f6 0e3e 2e47 a13e 6fdb 963e
00000010: a204 0abd c129 cb3e 5727 243f e8d5 38bb
00000020: aa02 fd3c 8535 c73d cf18 3f3d 9c4e babd
00000030: c93b af3e 09ca 4b3c 8b61 20bd 4434 8fbd
00000040: 240b a13e 908a b13e f1da d9be b223 1d3e
00000050: a907 1d3f 0824 313e cbae 893f 9449 7e3f
00000060: b9d4 33bf 4e0c f33d 0da9 8e3f 373c b3be
00000070: c881 6cbf 6051 c9bd 01e0 333e 87c0 a43f
00000080: 2d8a 9c3e e91e 023f f8dc ad3e 1b39 ac3e
00000090: 250e d93e 6b81 cc3e bfd6 7a3f 0697 0c3e
000000a0: 9a5e 7cbd 460c eabc 98b0 443f bfec c1be
000000b0: c710 d13e 3236 cebd c81f f9bd d578 b33e
000000c0: b390 c23e 925b 063e daae 433f 0051 c73e
000000d0: f740 42bb f1d0 3b3e cd30 5a3f ef18 18bd
000000e0: 4430 313e 1340 47bc 5e18 593e 78b4 adbe
000000f0: 0400 f23e 2bbe 933b af0f d2bb 8734 aa3c
00000100: 619c 01be 6e73 59be 7657 4f3f f5f4 ff3e
00000110: 1cd8 47be c07a 7a3e acb5 743f e75b 33be
00000120: 4836 d63d 1188 113d ddde 593e c152 30bf
00000130: 8713 0c3f 25f1 e43d b00e 693e 2c6f 553d
00000140: 47b0 043f ea9f 44be 6c83 623f 0131 b03e
00000150: f69f 3a3e 762f 89bd 6c87 8a3f 7499 cc3d
00000160: a2ca 9c3e 9bbb 983d 55e5 c43e acad a9be
00000170: a36d ca3e 8c86 f2bd f2e1 733e 2171 6e3e
00000180: 0ef4 253f d565 983d e588 193f 46df c63e
00000190: 1c85 883e 33e9 cc3d 4b93 663f e2ae 043d
000001a0: f49f 593e d703 d9bd 059b 153f 54b2 d7be
000001b0: 2528 a63e 7f5c c1bd 6e86 a13e 7471 913e
000001c0: 828a fc3e 3a20 743d a929 df3e 5f85 e93e
000001d0: a1b1 873e 37a7 1c3e 79cf 9d3f 66c3 283e
000001e0: 8384 883d da02 8ebd 0092 1c3f 99ac e1be
000001f0: ea6a b43e ec49 d7bd 70b2 823e 2343 773e
00000200: d713 4b3f 1193 2ebe 7812 5bbd ec1c a13d
00000210: 8b5f 023f 6828 47be 713e 343f 2334 ee3e
00000220: c1d5 a7bc 6992 2b3d b5f5 d53e a746 f3bd
00000230: ceda 78be b697 bdbd 4ba3 3f3e f6ba 603f
00000240: 0558 703f f212 10bc 1b65 33be 8b7f 5cbc
00000250: 4f64 d23e 6ef9 88be 69ce e03d 0e3b be3e
00000260: e354 603d fec8 883d 1629 df3e ec44 c23d
00000270: 0efa 17bf c7ec c3bd 1c9b 093e 0e01 563f
00000280: 280d 943e 81d0 e13c 78cd 193d 7429 8f3e
00000290: 10e1 bd3d d848 7f3e f98b 303f 995d b83d
000002a0: 5b47 bbbd 9bc4 313d 2e6a 653e 0616 8abe
000002b0: affd 513e d118 443c c218 f83d f333 213e
000002c0: 7cf7 573f 6221 ac3c dec3 05be e900 edbb
000002d0: 7445 3b3e ed59 90bd 85c8 04bd b611 cf3d
000002e0: 649c 383c ced6 f73d 7b41 363e c79b 063e
000002f0: 1fe9 89be 9f01 09bd 7981 873d 3f15 8f3e
00000300: 44f9 383f e33e 1fbe d280 fb3d 9177 0e3d
00000310: 9b90 393e affb 05bd 06f8 4d3d 88f0 663d
00000320: 3c90 723e 7689 5c3e 44ae da3c d76b 153e
00000330: 1cd6 143d 1c97 08bc 39ca 833d 950b be3d
00000340: e86b 423f 96ff da3e 4e8c 3d3e 53a4 7c3d
00000350: 36ec 013e 4451 a73d a4f8 95bd 0d72 5abe
00000360: 5dac 3e3e cfec 04bd adfb ef3d 9d54 423e
00000370: 3fe3 82bd 439d 38bc 8643 223e d2ef c03c
00000380: 538f 703f bcbe cabd 1585 9c3d e989 c9bd
00000390: 00c9 8b3e 9d52 24be 52ad 04be 9ad4 05be
000003a0: bffd 843e db8c a03e 44b6 15bc 6ccc ff3e
000003b0: 63da 8c3d e130 75bd b8a0 3f3e c113 85be
000003c0: 0027 47be 2fa3 0c3e ab3b 28be 393c 4f3d
000003d0: ca37 7b3e f69e 443e 3c28 e0be 4641 16be
000003e0: 01e6 fbbc 9887 6dbe 94d7 e03d 6740 27be
000003f0: e9e8 01bf 2100 633e 414d 1a3e d40f 003f
0.4161097 0.13961363 0.31499618 0.2946429 -0.033695824 0.39680293 0.6412253 -0.002820367
0.03088506 0.09727005 0.04665452 -0.09097025 0.342253 0.012438306 -0.039155524 -0.06992391
0.31453812 0.34676027 -0.42549852 0.15345648 0.61339813 0.17298901 1.0756468 0.9933102
-0.70246464 0.11867581 1.114534 -0.35006878 -0.9238553 -0.09829974 0.1756592 1.2871255
0.3057417 0.50828415 0.33957648 0.33637318 0.42393604 0.39942488 0.97983927 0.13729486
-0.061613657 -0.028570306 0.7683196 -0.37875935 0.40833113 -0.10068931 -0.12164265 0.35053125
0.38001022 0.13120869 0.7643868 0.38928986 -0.0029640773 0.18341424 0.85230714 -0.037133154
0.17303568 -0.012161273 0.21200702 -0.3392675 0.47265637 0.004508754 -0.006410561 0.020777
-0.1265731 -0.21235439 0.8099283 0.49991575 -0.19516033 0.24460888 0.9558971 -0.17515527
0.10459572 0.035530154 0.21276422 -0.6887627 0.54717296 0.11178807 0.22759509 0.052107975
0.5183148 -0.19201627 0.88481784 0.34412387 0.18225083 -0.066985056 1.0822577 0.09990206
0.30623347 0.07457658 0.38456216 -0.33140314 0.3953677 -0.11842069 0.2381666 0.23285343
0.6482552 0.07441298 0.5997451 0.3884222 0.26664054 0.10005417 0.900685 0.032393344
0.21252424 -0.105964355 0.58439666 -0.4212824 0.32452503 -0.0944147 0.31547874 0.2840687
0.49324423 0.059601046 0.43586472 0.45609567 0.26502708 0.15298162 1.2328941 0.16480789
0.066658996 -0.06934138 0.6116028 -0.44076994 0.3523782 -0.10512146 0.25526762 0.24146704
0.7932715 -0.17048289 -0.05348441 0.078668445 0.50927037 -0.19449008 0.7040778 0.46524152
-0.020487668 0.041887674 0.41789022 -0.1187871 -0.24302217 -0.09257452 0.18714635 0.8778528
0.9388431 -0.008793579 -0.17519037 -0.013458143 0.41092154 -0.267528 0.109768696 0.3715443
0.054768454 0.06678961 0.43586034 0.09485802 -0.5936593 -0.09566646 0.13438076 0.8359536
0.28916287 0.027565243 0.037549466 0.27961314 0.09271443 0.24930131 0.6896358 0.09002227
-0.09144469 0.04340039 0.22403786 -0.26969928 0.20506929 0.011968807 0.12114097 0.15742473
0.84362006 0.021012012 -0.13062999 -0.0072327745 0.18288213 -0.07048402 -0.032417793 0.101108
0.011267755 0.121015176 0.17798416 0.13145362 -0.2693567 -0.03344881 0.06616492 0.27945897
0.7225535 -0.15551333 0.1228043 0.034781996 0.18121569 -0.032710727 0.05028536 0.056381732
0.23687834 0.21536812 0.026694424 0.14591919 0.036337003 -0.0083368085 0.06435055 0.09279553
0.759459 0.42773122 0.18510553 0.06168015 0.12687764 0.08169797 -0.07322815 -0.2133257
0.18620439 -0.0324524 0.11717925 0.1897759 -0.06391 -0.011267963 0.1584607 0.023551855
0.93968695 -0.09899661 0.07642571 -0.098407574 0.27301788 -0.1604714 -0.12956741 -0.13069382
0.25974843 0.31357464 -0.009137694 0.4996065 0.068775915 -0.059861068 0.18713653 -0.25991634
-0.19448471 0.13734125 -0.16429012 0.050594542 0.24533 0.19201264 -0.43780696 -0.14673337
-0.030749323 -0.23196256 0.10978618 -0.16333161 -0.5074602 0.22168018 0.15068533 0.5002415

output.bias f4 [28]
00000000: 8abc b8c0 93ef b8c0 d15b 273e 2f57 4dbe
00000010: d737 3a3d 6a9b f73c c507 c63e 7914 4bbe
00000020: 5f1e 11be 2c45 6fbe d15b 083e 96cb c9be
00000030: 1383 90be c421 fc3d fb9c 08bd d48f 023e
00000040: b74c ea3d 52bb 9cbd 9541 0cbf dc37 4d3e
00000050: 0c6a ba3e f9fa a83d 0c1b c3bd 1730 03bf
00000060: 8520 d7be b01c 41bf 52ff aebe b241 2fbf
-5.773015 -5.779245 0.16343619 -0.20052789 0.04546341 0.030225474 0.38677803 -0.19832028
-0.14171742 -0.2336623 0.13316275 -0.39413136 -0.28225002 0.12311128 -0.033352833 0.12750179
0.114404134 -0.07652916 -0.5478757 0.2004084 0.36409032 0.08250994 -0.09526643 -0.51245254
-0.42016998 -0.754344 -0.3417917 -0.6845962
